…
:"D3qSi3v-ww1L","executionInfo":{"status":"ok","timestamp":1626961926495,"user_tz":-330,"elapsed":48,"user":{"displayName":"Akshat Gupta","photoUrl":"","userId":"07001788486936076709"}},"outputId":"d3c88490-cb1d-4750-bf89-be2586abd30a"},"source":["model.summary()"],"execution_count":null,"outputs":[{"output_type":"stream","text":["Model: \"sequential_7\"\n","_________________________________________________________________\n","Layer (type)                 Output Shape              Param #   \n","=================================================================\n","conv2d_33 (Conv2D)           (None, 300, 300, 32)      896       \n","_________________________________________________________________\n","max_pooling2d_33 (MaxPooling (None, 150, 150, 32)      0         \n","_________________________________________________________________\n","conv2d_34 (Conv2D)           (None, 150, 150, 64)      18496     \n","_________________________________________________________________\n","max_pooling2d_34 (MaxPooling (None, 75, 75, 64)        0         \n","_________________________________________________________________\n","dropout_3 (Dropout)          (None, 75, 75, 64)        0         \n","_________________________________________________________________\n","conv2d_35 (Conv2D)           (None, 75, 75, 128)       73856     \n","_________________________________________________________________\n","max_pooling2d_35 (MaxPooling (None, 37, 37, 128)       0         \n","_________________________________________________________________\n","conv2d_36 (Conv2D)           (None, 37, 37, 64)        73792     \n","_________________________________________________________________\n","max_pooling2d_36 (MaxPooling (None, 18, 18, 64)        0         \n","_________________________________________________________________\n","flatten_7 (Flatten)          (None, 20736)             0         \n","_________________________________________________________________\n","dense_7 (Dense)              (None, 2)                 41474     \n","=================================================================\n","Total params: 208,514\n","Trainable params: 208,514\n","Non-trainable params: 0\n","_________________________________________________________________\n"],"name":"stdout"}]},{"cell_type":"code","metadata":{"id":"DY_gOaj5wyfc"},"source":["model.compile(optimizer=Adam(), loss = 'binary_crossentropy', metrics=['accuracy'])
…
lhost:8080/"},"executionInfo":{"status":"ok","timestamp":1626961786701,"user_tz":-330,"elapsed":970,"user":{"displayName":"Akshat Gupta","photoUrl":"","userId":"07001788486936076709"}},"outputId":"7055db63-0df6-4382-9f99-88c78c8ab501"},"source":["model2.summary()"],"execution_count":null,"outputs":[{"output_type":"stream","text":["Model: \"sequential_4\"\n","_________________________________________________________________\n","Layer (type)                 Output Shape              Param #   \n","=================================================================\n","conv2d_20 (Conv2D)           (None, 300, 300, 32)      896       \n","_________________________________________________________________\n","max_pooling2d_20 (MaxPooling (None, 150, 150, 32)      0         \n","_________________________________________________________________\n","conv2d_21 (Conv2D)           (None, 150, 150, 64)      18496     \n","_________________________________________________________________\n","max_pooling2d_21 (MaxPooling (None, 75, 75, 64)        0         \n","_________________________________________________________________\n","conv2d_22 (Conv2D)           (None, 75, 75, 128)       73856     \n","_________________________________________________________________\n","max_pooling2d_22 (MaxPooling (None, 37, 37, 128)       0         \n","_________________________________________________________________\n","conv2d_23 (Conv2D)           (None, 37, 37, 64)        73792     \n","_________________________________________________________________\n","max_pooling2d_23 (MaxPooling (None, 18, 18, 64)        0         \n","_________________________________________________________________\n","flatten_4 (Flatten)          (None, 20736)             0         \n","_________________________________________________________________\n","dense_4 (Dense)              (None, 2)                 41474     \n","=================================================================\n","Total params: 208,514\n","Trainable params: 208,514\n","Non-trainable params: 0\n","_________________________________________________________________\n"],"name":"stdout"}]},{"cell_type":"code","metadata":{"id":"UBSwGqm0eq8p"},"source":[""],"execution_count":null,"outputs":[]},{"cell_type":"code","metadata":{"id":"Oke2q
…
