…
"4J79I4fU72Hf","executionInfo":{"status":"ok","timestamp":1626882827951,"user_tz":-330,"elapsed":79,"user":{"displayName":"Akshat Gupta","photoUrl":"","userId":"07001788486936076709"}},"outputId":"fb4a6d56-972b-4d9d-c284-618e1636c791"},"source":["model1.summary()"],"execution_count":null,"outputs":[{"output_type":"stream","text":["Model: \"sequential_4\"\n","_________________________________________________________________\n","Layer (type)                 Output Shape              Param #   \n","=================================================================\n","module_wrapper_8 (ModuleWrap (32, 224, 224, 6)         456       \n","_________________________________________________________________\n","module_wrapper_9 (ModuleWrap (32, 112, 112, 6)         0         \n","_________________________________________________________________\n","conv2d_4 (Conv2D)            (32, 112, 112, 16)        2416      \n","_________________________________________________________________\n","average_pooling2d_4 (Average (32, 56, 56, 16)          0         \n","_________________________________________________________________\n","flatten_4 (Flatten)          (32, 50176)               0         \n","_________________________________________________________________\n","dense_12 (Dense)             (32, 120)                 6021240   \n","_________________________________________________________________\n","dense_13 (Dense)             (32, 84)                  10164     \n","_________________________________________________________________\n","dense_14 (Dense)             (32, 2)                   170       \n","=================================================================\n","Total params: 6,034,446\n","Trainable params: 6,034,446\n","Non-trainable params: 0\n","_________________________________________________________________\n"],"name":"stdout"}]},{"cell_type":"code","metadata":{"id":"nnEtaE308FAS"},"source":["model1.compile(optimizer=Adam(learning_rate=0.001),metrics = ['accuracy'], lo
…
