…
a","photoUrl":"","userId":"07001788486936076709"}},"outputId":"90e7d1e5-586d-4fe4-fe52-63c9d1f528cc"},"source":["model_vgg.summary()"],"execution_count":11,"outputs":[{"output_type":"stream","text":["Model: \"vgg16\"\n","_________________________________________________________________\n","Layer (type)                 Output Shape              Param #   \n","=================================================================\n","input_1 (InputLayer)         [(None, 224, 224, 3)]     0         \n","_________________________________________________________________\n","block1_conv1 (Conv2D)        (None, 224, 224, 64)      1792      \n","_________________________________________________________________\n","block1_conv2 (Conv2D)        (None, 224, 224, 64)      36928     \n","_________________________________________________________________\n","block1_pool (MaxPooling2D)   (None, 112, 112, 64)      0         \n","_________________________________________________________________\n","block2_conv1 (Conv2D)        (None, 112, 112, 128)     73856     \n","_________________________________________________________________\n","block2_conv2 (Conv2D)        (None, 112, 112, 128)     147584    \n","_________________________________________________________________\n","block2_pool (MaxPooling2D)   (None, 56, 56, 128)       0         \n","_________________________________________________________________\n","block3_conv1 (Conv2D)        (None, 56, 56, 256)       295168    \n","_________________________________________________________________\n","block3_conv2 (Conv2D)        (None, 56, 56, 256)       590080    \n","_________________________________________________________________\n","block3_conv3 (Conv2D)        (None, 56, 56, 256)       590080    \n","_________________________________________________________________\n","block3_pool (MaxPooling2D)   (None, 28, 28, 256)       0         \n","_________________________________________________________________\n","block4_conv1 (Conv2D)        (None, 28, 28, 512)       1180160   \n","_________________________________________________________________\n","block4_conv2 (Conv2D)        (None, 28, 28, 512)       2359808   \n","_________________________________________________________________\n","block4_conv3 (Conv2D)        (None, 28, 28, 512)       2359808   \n","_________________________________________________________________\n","block4_pool (MaxPooling2D)   (None, 14, 14, 512)       0         \n","_________________________________________________________________\n","block5_conv1 (Conv2D)        (None, 14, 14, 512)       2359808   \n","_________________________________________________________________\n","block5_conv2 (Conv2D)        (None, 14, 14, 512)       2359808   \n","_________________________________________________________________\n","block5_conv3 (Conv2D)        (None, 14, 14, 512)       2359808   \n","_________________________________________________________________\n","block5_pool (MaxPooling2D)   (None, 7, 7, 512)         0         \n","_________________________________________________________________\n","flatten (Flatten)            (None, 25088)             0         \n","_________________________________________________________________\n","fc1 (Dense)                  (None, 4096)              102764544 \n","_________________________________________________________________\n","fc2 (Dense)                  (None, 4096)              16781312  \n","_________________________________________________________________\n","predictions (Dense)          (None, 1000)              4097000   \n","=================================================================\n","Total params: 138,357,544\n","Trainable params: 138,357,544\n","Non-trainable params: 0\n","_________________________________________________________________\n"],"name":"stdout"}]},{"cell_type":"code","metadata":{"colab":{"base_uri":"https://localhost:8080/"},"id":"JvuRogQs54Dc","executionInfo":{"status":"ok","timestamp"
…
id":"ugmS_02e6Xau","executionInfo":{"status":"ok","timestamp":1627538381184,"user_tz":-330,"elapsed":195,"user":{"displayName":"Akshat Gupta","photoUrl":"","userId":"07001788486936076709"}},"outputId":"0a881a2b-2701-49f8-a8f0-bdbbd870ee8d"},"source":["model.summary()"],"execution_count":16,"outputs":[{"output_type":"stream","text":["Model: \"sequential\"\n","_________________________________________________________________\n","Layer (type)                 Output Shape              Param #   \n","=================================================================\n","block1_conv1 (Conv2D)        (None, 224, 224, 64)      1792      \n","_________________________________________________________________\n","block1_conv2 (Conv2D)        (None, 224, 224, 64)      36928     \n","_________________________________________________________________\n","block1_pool (MaxPooling2D)   (None, 112, 112, 64)      0         \n","_________________________________________________________________\n","block2_conv1 (Conv2D)        (None, 112, 112, 128)     73856     \n","_________________________________________________________________\n","block2_conv2 (Conv2D)        (None, 112, 112, 128)     147584    \n","_________________________________________________________________\n","block2_pool (MaxPooling2D)   (None, 56, 56, 128)       0         \n","_________________________________________________________________\n","block3_conv1 (Conv2D)        (None, 56, 56, 256)       295168    \n","_________________________________________________________________\n","block3_conv2 (Conv2D)        (None, 56, 56, 256)       590080    \n","_________________________________________________________________\n","block3_conv3 (Conv2D)        (None, 56, 56, 256)       590080    \n","_________________________________________________________________\n","block3_pool (MaxPooling2D)   (None, 28, 28, 256)       0         \n","_________________________________________________________________\n","block4_conv1 (Conv2D)        (None, 28, 28, 512)       1180160   \n","_________________________________________________________________\n","block4_conv2 (Conv2D)        (None, 28, 28, 512)       2359808   \n","_________________________________________________________________\n","block4_conv3 (Conv2D)        (None, 28, 28, 512)       2359808   \n","_________________________________________________________________\n","block4_pool (MaxPooling2D)   (None, 14, 14, 512)       0         \n","_________________________________________________________________\n","block5_conv1 (Conv2D)        (None, 14, 14, 512)       2359808   \n","_________________________________________________________________\n","block5_conv2 (Conv2D)        (None, 14, 14, 512)       2359808   \n","_________________________________________________________________\n","block5_conv3 (Conv2D)        (None, 14, 14, 512)       2359808   \n","_________________________________________________________________\n","block5_pool (MaxPooling2D)   (None, 7, 7, 512)         0         \n","_________________________________________________________________\n","flatten (Flatten)            (None, 25088)             0         \n","_________________________________________________________________\n","fc1 (Dense)                  (None, 4096)              102764544 \n","_________________________________________________________________\n","fc2 (Dense)                  (None, 4096)              16781312  \n","=================================================================\n","Total params: 134,260,544\n","Trainable params: 119,545,856\n","Non-trainable params: 14,714,688\n","_________________________________________________________________\n"],"name":"stdout"}]},{"cell_type":"code","metadata":{"id":"YZTv5Fii6YuE","executionInfo":{"status":"ok","timestamp":1627538381186,"user_tz":-330,"elapsed"
…
id":"nH1ng_hH6dNF","executionInfo":{"status":"ok","timestamp":1627538381188,"user_tz":-330,"elapsed":179,"user":{"displayName":"Akshat Gupta","photoUrl":"","userId":"07001788486936076709"}},"outputId":"6204fd44-be5b-4dd9-cf07-330d6eec08ef"},"source":["model.summary()"],"execution_count":18,"outputs":[{"output_type":"stream","text":["Model: \"sequential\"\n","_________________________________________________________________\n","Layer (type)                 Output Shape              Param #   \n","=================================================================\n","block1_conv1 (Conv2D)        (None, 224, 224, 64)      1792      \n","_________________________________________________________________\n","block1_conv2 (Conv2D)        (None, 224, 224, 64)      36928     \n","_________________________________________________________________\n","block1_pool (MaxPooling2D)   (None, 112, 112, 64)      0         \n","_________________________________________________________________\n","block2_conv1 (Conv2D)        (None, 112, 112, 128)     73856     \n","_________________________________________________________________\n","block2_conv2 (Conv2D)        (None, 112, 112, 128)     147584    \n","_________________________________________________________________\n","block2_pool (MaxPooling2D)   (None, 56, 56, 128)       0         \n","_________________________________________________________________\n","block3_conv1 (Conv2D)        (None, 56, 56, 256)       295168    \n","_________________________________________________________________\n","block3_conv2 (Conv2D)        (None, 56, 56, 256)       590080    \n","_________________________________________________________________\n","block3_conv3 (Conv2D)        (None, 56, 56, 256)       590080    \n","_________________________________________________________________\n","block3_pool (MaxPooling2D)   (None, 28, 28, 256)       0         \n","_________________________________________________________________\n","block4_conv1 (Conv2D)        (None, 28, 28, 512)       1180160   \n","_________________________________________________________________\n","block4_conv2 (Conv2D)        (None, 28, 28, 512)       2359808   \n","_________________________________________________________________\n","block4_conv3 (Conv2D)        (None, 28, 28, 512)       2359808   \n","_________________________________________________________________\n","block4_pool (MaxPooling2D)   (None, 14, 14, 512)       0         \n","_________________________________________________________________\n","block5_conv1 (Conv2D)        (None, 14, 14, 512)       2359808   \n","_________________________________________________________________\n","block5_conv2 (Conv2D)        (None, 14, 14, 512)       2359808   \n","_________________________________________________________________\n","block5_conv3 (Conv2D)        (None, 14, 14, 512)       2359808   \n","_________________________________________________________________\n","block5_pool (MaxPooling2D)   (None, 7, 7, 512)         0         \n","_________________________________________________________________\n","flatten (Flatten)            (None, 25088)             0         \n","_________________________________________________________________\n","fc1 (Dense)                  (None, 4096)              102764544 \n","_________________________________________________________________\n","fc2 (Dense)                  (None, 4096)              16781312  \n","_________________________________________________________________\n","dense (Dense)                (None, 2)                 8194      \n","=================================================================\n","Total params: 134,268,738\n","Trainable params: 119,554,050\n","Non-trainable params: 14,714,688\n","_________________________________________________________________\n"],"name":"stdout"}]},{"cell_type":"code","metadata":{"colab":{"base_uri":"https://localhost:8080/"},"id":"Zx1bYLjn6fnW","executionInfo":{"status":"ok"
…
