…
"id":"TuWeq75e1dRm","executionInfo":{"status":"ok","timestamp":1626683135312,"user_tz":-330,"elapsed":30,"user":{"displayName":"Akshat Gupta","photoUrl":"","userId":"07001788486936076709"}},"outputId":"b6a16028-9576-4940-ee65-d8e4d0fee34f"},"source":["model.summary()"],"execution_count":16,"outputs":[{"output_type":"stream","text":["Model: \"sequential\"\n","_________________________________________________________________\n","Layer (type)                 Output Shape              Param #   \n","=================================================================\n","module_wrapper (ModuleWrappe (32, 222, 222, 6)         168       \n","_________________________________________________________________\n","module_wrapper_1 (ModuleWrap (32, 111, 111, 6)         0         \n","_________________________________________________________________\n","conv2d (Conv2D)              (32, 109, 109, 16)        880       \n","_________________________________________________________________\n","average_pooling2d (AveragePo (32, 54, 54, 16)          0         \n","_________________________________________________________________\n","flatten (Flatten)            (32, 46656)               0         \n","_________________________________________________________________\n","dense (Dense)                (32, 120)                 5598840   \n","_________________________________________________________________\n","dense_1 (Dense)              (32, 84)                  10164     \n","_________________________________________________________________\n","dense_2 (Dense)              (32, 2)                   170       \n","=================================================================\n","Total params: 5,610,222\n","Trainable params: 5,610,222\n","Non-trainable params: 0\n","_________________________________________________________________\n"],"name":"stdout"}]},{"cell_type":"code","metadata":{"id":"yYb1KYw31mD4","executionInfo":{"status":"ok","timestamp":1626683135313,"user_tz":-330,"elapsed":25,"use
…
:"4J79I4fU72Hf","executionInfo":{"status":"ok","timestamp":1626684282643,"user_tz":-330,"elapsed":905,"user":{"displayName":"Akshat Gupta","photoUrl":"","userId":"07001788486936076709"}},"outputId":"24e613bb-cb7c-4eaa-81f0-e889efe11150"},"source":["model1.summary()"],"execution_count":34,"outputs":[{"output_type":"stream","text":["Model: \"sequential_5\"\n","_________________________________________________________________\n","Layer (type)                 Output Shape              Param #   \n","=================================================================\n","module_wrapper_9 (ModuleWrap (32, 224, 224, 6)         456       \n","_________________________________________________________________\n","module_wrapper_10 (ModuleWra (32, 112, 112, 6)         0         \n","_________________________________________________________________\n","conv2d_4 (Conv2D)            (32, 112, 112, 16)        2416      \n","_________________________________________________________________\n","average_pooling2d_3 (Average (32, 56, 56, 16)          0         \n","_________________________________________________________________\n","flatten_3 (Flatten)          (32, 50176)               0         \n","_________________________________________________________________\n","dense_9 (Dense)              (32, 120)                 6021240   \n","_________________________________________________________________\n","dense_10 (Dense)             (32, 84)                  10164     \n","_________________________________________________________________\n","dense_11 (Dense)             (32, 2)                   170       \n","=================================================================\n","Total params: 6,034,446\n","Trainable params: 6,034,446\n","Non-trainable params: 0\n","_________________________________________________________________\n"],"name":"stdout"}]},{"cell_type":"code","metadata":{"id":"nnEtaE308FAS","executionInfo":{"status":"ok","timestamp":1626684343229,"user_tz":-330,"elapsed":926,"us
…
